src/best_model.pth (torch, 77474 bytes, 35 tensors)

convblock1.0.weight f4 [16, 1, 3, 3]
00000000: 64a5 e23e 5f06 01bf d2ef a73a f2b0 083e
00000010: 76a4 1fbf cd59 e33e 14ba 05bd 451a 163b
00000020: 448d a73c 480e 303e dd8e c33e b937 913e
00000030: 4755 ba3e b380 e3bd ee39 8fbe 3ae7 55be
00000040: 25c4 8dbe 5d12 4fbe 722d 023f a441 303e
00000050: 99c7 f6bd afbc bebe 62fd babe 93da 85be
00000060: 907c 9ebd 7263 853d b3c9 e93e e605 603d
00000070: 91c7 59bd 293a 0ebe cab4 e53c bf06 083f
00000080: 4a1c fe3e b680 e5be 76e3 debe 2ed3 d9be
00000090: 3dc0 473e fa98 52bd c468 043d 4bf4 1ebe
000000a0: c286 b83e 6746 723c 328e 313f 7fc0 5cbe
000000b0: 2d43 23bf 77f4 103e 1c6c c23d 0c10 103c
000000c0: 24fa d43d b479 1a3e de60 94be 7ced 19bf
000000d0: 0d39 a2be c321 bbbe 445e 1ebe 7038 333e
000000e0: 6e2b 053f af14 e1be fe1e 933c abb1 e13e
000000f0: e710 29bf 098c 29be 2c40 d43e 35ee 9a3e
00000100: 2b51 f6bc a5dd bebe 3c78 743e e4ab de3d
00000110: cb31 4abe ecdc c4bd 2e97 3fbe 1073 52be
00000120: 83eb aa3d cd8b 5b3e 2414 3e3f 8953 513d
00000130: 24df 20bd 19b8 b53e 4ade 11bf b91b 8ebe
00000140: 0549 77be 7b10 0ebf 19e0 c0be c2f8 3abe
00000150: 2544 233e 91eb e6bd eef5 12bf 4407 bd3e
00000160: d7ac 6e3e 69a8 aa3d 03eb 4f3e 8f84 f8be
00000170: f636 7cbe 7250 373e 5f08 1bbe 2378 b7be
00000180: d791 b33e 4cd4 8b3d 36d7 d4be 972b ffbc
00000190: 9e1c 25be ac35 2fbe e8a3 f83d deaa 1d3f
000001a0: 2473 a4be d1d0 2abf b94d e53e d7f8 833d
000001b0: 522c 343f 15ae 76be 37df 07bf 54f0 2c3e
000001c0: dfa0 c1bd d3ac 44be 57a0 ba3e 5bbf 0a3e
000001d0: d8b7 2c3e 258c 373c bd92 a3be 545a c4be
000001e0: 337c ecbe e37c 28be a5cb b93e a82e 09bf
000001f0: 957f b03e e413 9e3c 8c17 22bf a53e f9be
00000200: 721a 52be 6e98 b0bb d82b a43c 1ff6 743e
00000210: 0564 ed3e 25d4 833e b9b9 d53e aa73 4d3e
00000220: 4524 083e c872 ea3e 99f2 e0be 65b4 6cbe
00000230: d123 103d d32c f4bd 2731 b0be 1eff e7be
0.44266808 -0.50400347 0.0012812561 0.1334875 -0.6236032 0.4440445 -0.03264816 0.0022903841
0.020453103 0.17192948 0.38194934 0.28362826 0.36393186 -0.11108532 -0.27973884 -0.20888987
-0.2768871 -0.20221849 0.50850594 0.1721254 -0.12049789 -0.3725333 -0.3652144 -0.2614332
-0.07738602 0.06513108 0.45661697 0.054693125 -0.053168837 -0.13889374 0.028040309 0.53135294
0.49630958 -0.4482476 -0.43532914 -0.4254393 0.19506927 -0.05141542 0.032326475 -0.15522878
0.36040312 0.014787293 0.693576 -0.21557806 -0.6377438 0.14155756 0.094932765 0.008792888
0.10399273 0.15085489 -0.28980154 -0.60128 -0.3168415 -0.36549196 -0.15465647 0.17501998
0.52019393 -0.43961093 0.017959114 0.44080862 -0.66041416 -0.16557325 0.4145521 0.30259863
-0.030068 -0.37278476 0.23873991 0.10872629 -0.19745557 -0.0961245 -0.18710014 -0.20551705
0.083457015 0.21440049 0.7424948 0.051105056 -0.039275303 0.35492018 -0.5697981 -0.27755526
-0.24148948 -0.554939 -0.37670973 -0.18258956 0.15943964 -0.112753995 -0.5740651 0.36919606
0.2330812 0.08332903 0.20304494 -0.48538634 -0.24630341 0.17901781 -0.15139912 -0.35833845
0.35072204 0.06827602 -0.41570443 -0.031148715 -0.16124198 -0.17110318 0.12140638 0.6158885
-0.32119095 -0.6672488 0.4478586 0.06443947 0.7038013 -0.24089845 -0.53074974 0.16888553
-0.09454512 -0.19206552 0.36450455 0.13549559 0.16867006 0.011202847 -0.3194789 -0.38350165
-0.46188506 -0.1645389 0.3628818 -0.53586817 0.34472337 0.019296594 -0.6331718 -0.48680606
-0.205179 -0.005389265 0.020040438 0.23922013 0.4636537 0.2574779 0.41743258 0.20063654
0.13295086 0.45790696 -0.43935087 -0.2311569 0.035190407 -0.11922612 -0.344125 -0.45311826

convblock1.1.weight f4 [16]
00000000: b4b4 ed3e c864 033f cc9e f43e 55b3 313f
00000010: 479c e83e e65e 723f ea76 093f 9063 ea3e
00000020: da4e 1a3f 47c1 553f 0c9c 473f 216a e13e
00000030: db9b f03e bcea 913f 9c17 ff3e ba3c 593f
0.46426928 0.51325655 0.47777402 0.69414264 0.4543173 0.94676054 0.53697073 0.45779085
0.6027657 0.8349804 0.77972484 0.44026282 0.46993908 1.139976 0.498227 0.84858286

convblock1.1.bias f4 [16]
00000000: d5f9 50bd 9ff8 6cbd 7249 56bc a0ea 5dbe
00000010: ea11 7e3d c77d 98bc 3399 333e 0f07 95bd
00000020: a866 05be 9e56 2abe 80ea d5bd 77cc 46be
00000030: caaa 9cbe a6d4 40be 981b b53d 89b8 50be
-0.05101951 -0.05785429 -0.013079034 -0.21671534 0.062028803 -0.018614663 0.1753891 -0.07276737
-0.13027442 -0.16634604 -0.10445118 -0.19413935 -0.30599052 -0.18831119 0.08843154 -0.20382895

convblock1.1.running_mean f4 [16]
00000000: ed98 693c 64bc 4d3b 653c 833c 4b8a d6bc
00000010: 6237 b13a d9e7 debc 5917 483b c20c 49bc
00000020: b242 853b edbb 59bc 5ff7 19bc a478 b2bc
00000030: 2630 8e3c e937 c0bc 8851 133b ab33 a8bb
0.014257652 0.0031392807 0.01602001 -0.02618899 0.0013520534 -0.027210163 0.0030531494 -0.012271108
0.0040667886 -0.013289434 -0.009397357 -0.021786042 0.017356943 -0.02346416 0.0022479016 -0.0051331124

convblock1.1.running_var f4 [16]
00000000: 5566 673e 72b6 0f3f 325e 763e 170d d53e
00000010: 8d97 043f 593c 933f e789 a23f 3622 f03e
00000020: 2828 7d3f 3476 973f a3f7 863f e9eb 353e
00000030: 3c77 453f b26b 9f3f 4ae8 9a3f 73d1 6d3f
0.2259763 0.56137764 0.2405937 0.4161155 0.5179375 1.1502792 1.2698334 0.469011
0.988894 1.1832948 1.0544323 0.17765774 0.7713506 1.2454741 1.2102139 0.9289772

convblock2.0.weight f4 [32, 16, 3, 3]
00000000: bbd0 70bd a327 d03b 9511 823a 5e09 5abd
00000010: 6eed de3c 326c b63d 02b5 dbbd 3053 cbbb
00000020: 3046 a73c 74bf fdbd 4343 4b3c e5b9 0f3d
00000030: 1419 3abc c63e db3b 31ab b2bc fb1d 7b3c
00000040: da7e 75bd de90 d1bd b244 06be 76ac 71bd
00000050: 3101 6dbd 0a69 c4bd 1328 aebd c905 b6bc
00000060: 94dd a3bd acfa 00be 60ea 05be df22 223c
00000070: 244d 93bd b8ae d8bd 5a2f 313d b563 f2bd
00000080: e11d 06be f46c 8abd 7464 9bbd b80e 16bd
00000090: 1a9b 79bd 223e 7bbc c44a 89bd 1bbf 71bd
000000a0: 2773 1abd 3090 babd 3aa1 e1bd 6cda 2dbd
000000b0: 269f 33be fad0 b8bc c961 c33d 842b 79bd
000000c0: e6e4 08bd 3be5 e9b9 d6e9 1fbd ad5c 773d
000000d0: fcd9 593d 23d9 013b 415b 6c3c da89 ff3b
000000e0: 7cb1 8a3e 9e0c 6d3c 4905 edbd 94a7 753c
000000f0: 466d a1bd 52d2 24be ce8e 183d 4d83 35bd
00000100: 00fb 9e3c 8744 52bd 5999 d3bc efcf ff3b
00000110: c458 14bd c342 ba3c 8698 4a3a 914b 18bd
00000120: 32a9 46bd 58f1 a3bc 0566 253e e9cf 123d
00000130: 7fda 3dbd 1d2d c83d 4ade 36bd 79a5 c7bc
00000140: f645 d73d 4a8a 25bd acdf aabc 0840 93bc
00000150: 1c89 81bd 68f5 b1bc 52ae 5b3b a648 ccbd
00000160: 27ab 3abc 6eb7 a0bd 0f6c 8dbd 2d53 883c
00000170: e5f2 8ebb 0241 ccbc 2020 943d 8a53 82bb
00000180: 91bf 1ebd b7ee fe3d d2ec d3bc 3059 b0bc
00000190: a9bc cc3b 0fc7 40bb 6153 9ebc e6bc febc
000001a0: 9483 393d e096 2ebd 7ddc 81bd 4c7b aabd
000001b0: 27e9 8dbd c9dd 2c3c 9125 a9bd 4b42 c4bd
000001c0: 323d b4bd 40fc 76bd 9ce2 6cbd 8751 03bc
000001d0: b7b6 30bd 61d4 8f3d 286d f8bc 9322 803c
000001e0: c09b a03d ef0b c2ba a933 1a3d e820 023c
000001f0: b0a2 b9bd 3cf1 34bd 7f7f 5dbd 3d70 68bd
00000200: 3795 01bd c0ec bebd e6ce c3bd c5c8 1fbd
00000210: 3a78 3dbe 23f4 15be b1b1 13be 55f3 3dbd
00000220: 3f2c 133a 0fee 323e b752 c9bc e94b 83bd
00000230: 7127 513d 5fdb 5e3c b8e5 1f3d a0a9 603d
00000240: 14dd 0dbd 8591 3e3d a964 cdbd 5791 453d
00000250: 0ded e43d 9196 d0bd e5a0 8dbb fce9 083e
00000260: 88af 903c e64e c7bd 222b 26be 77f1 ddbd
00000270: c5d9 35bd 0f00 c2bc 287b 22bd 247c 0b3d
00000280: 8adb cfbd bec2 e9bd 3feb 94be 8b10 b1bd
00000290: 9714 f4bd 04d4 5fbd 030e d33b 9033 a6bd
000002a0: e347 51be 2fff 18bd 3c23 91bc ee28 bfbd
000002b0: 1d51 3fbd d373 6abc ae48 98bd d084 8ebd
000002c0: 3a86 66bd 80b1 ffbd 47af f5bc efbd fb3c
000002d0: cdf8 2b3d 4e72 8bbd aa3d eebd dd9d 193e
000002e0: 3394 37bd 8507 c1bd a5af 783d 8cc4 e9bc
000002f0: 7261 1ebd f3aa 70bd 63d5 29bd 29d4 413b
00000300: f817 273c ee33 903d 4088 0f3d 11b0 403e
00000310: cde4 a33d 2747 373d 4d14 603d 8a80 ee3b
00000320: d081 37bd b15a ff3b 8036 1b3b 56f7 9f3d
00000330: 162f 0bbe ca25 ac3c 5c80 803e 7f4b ad3c
00000340: e952 c9bb 65cf b4bc e9e7 8a3c a377 b8b9
00000350: 2f89 893b 3b7a a43d 41d9 5dbc 422e 2f3c
00000360: b742 c5bd 2501 3dbd 1414 0abe acd8 97bd
00000370: f203 98bd 9d71 ee3b 9b56 0abe 540b 2938
00000380: d6f1 2f3d 5f6d 893d 705f e73c 54f4 9ebd
00000390: 8977 d83c 81e2 02bd 202d 69bd 2855 afbd
000003a0: fe35 1dbc 598e 183d 7bc9 033e 51e8 bf3d
000003b0: 689e 01bd a5f1 233e ed92 9e3d dae3 acbc
000003c0: 4afe 973d dc5b c23d f7b1 a53d 79d5 9c3c
000003d0: e1f8 adbc e774 a7bd be72 37bd 3271 09bd
000003e0: e388 823d a785 d1bd 990d 80bd fd32 1d3e
000003f0: 91f4 a03d 563a 533c 29b4 e6bd d55c 033e
-0.05879281 0.0063523813 0.0009923453 -0.05323159 0.027212825 0.08907355 -0.10727884 -0.006204985
0.02041921 -0.123900324 0.012406173 0.035089392 -0.011358518 0.006690833 -0.021810146 0.015326972
-0.05993543 -0.10232709 -0.13112143 -0.059002362 -0.057862464 -0.09590347 -0.08503737 -0.022219555
-0.08001247 -0.12595624 -0.13077688 0.009896009 -0.07192448 -0.105802 0.04325805 -0.11835424
-0.13097335 -0.067590624 -0.07587519 -0.03663513 -0.060938932 -0.015334638 -0.067037135 -0.059020143
-0.037707474 -0.09109533 -0.1101708 -0.04244463 -0.17541179 -0.022560585 0.095401354 -0.060832515
-0.03342142 -0.00044612013 -0.039041363 0.060391117 0.0531864 0.0019813261 0.0144260535 0.0077984156
0.27088535 0.01446834 -0.11573274 0.014993567 -0.078821704 -0.16095856 0.037245564 -0.04431467
0.019406796 -0.051334884 -0.025829958 0.00780677 -0.036217466 0.022736913 0.0007728416 -0.03718144
-0.0485012 -0.020012543 0.16152199 0.03584281 -0.046350952 0.0977423 -0.044645585 -0.024370896
0.10511391 -0.040415086 -0.020858608 -0.017974868 -0.0632498 -0.021723464 0.003352065 -0.09974794
-0.011393345 -0.078474864 -0.06905376 0.016641224 -0.0043624514 -0.024933342 0.0723269 -0.003977244
-0.03875691 0.12447875 -0.02586976 -0.021526903 0.006248076 -0.0029415523 -0.019326868 -0.031095933
0.0452915 -0.042624354 -0.06340883 -0.08324298 -0.06929236 0.010550925 -0.08259118 -0.09582957
-0.088007346 -0.060299158 -0.0578333 -0.008015043 -0.043143 0.0702293 -0.030325487 0.015641486
0.07842207 -0.0014804582 0.037646923 0.007942416 -0.09064233 -0.04417537 -0.054076668 -0.056747664
-0.031636443 -0.093225 -0.09560947 -0.039009828 -0.18502894 -0.14643912 -0.14423253 -0.046374638
0.0005614198 0.17473625 -0.024575574 -0.06410963 0.051063005 0.013602107 0.039037436 0.054849267
-0.034634665 0.046525497 -0.10028965 0.04823431 0.11178026 -0.10184968 -0.0043221586 0.13370508
0.017661825 -0.097318456 -0.16227391 -0.108370714 -0.044397134 -0.023681669 -0.039668232 0.034053937
-0.10149296 -0.11414097 -0.2908573 -0.086457334 -0.1191799 -0.054645553 0.0064408793 -0.081153035
-0.20437579 -0.037352737 -0.017716996 -0.093339786 -0.046708215 -0.014309841 -0.074357376 -0.06958926
-0.056280352 -0.12485027 -0.029990805 0.030730216 0.04198532 -0.06808911 -0.11632855 0.15001626
-0.04481907 -0.09425262 0.060714383 -0.028536104 -0.03866715 -0.05875678 -0.041463267 0.002957592
0.010198586 0.07041155 0.035042048 0.18817164 0.08002625 0.04474559 0.05470686 0.0072785066
-0.044801533 0.0077927937 0.0023683608 0.078108475 -0.1359218 0.021014113 0.2509793 0.021154163
-0.006143917 -0.02207155 0.016956287 -0.0003518435 0.0041972618 0.08031126 -0.013540567 0.010692181
-0.096318655 -0.04614367 -0.13484222 -0.07414374 -0.074226275 0.0072767274 -0.135096 4.030329e-05
0.042955242 0.06710314 0.02824375 -0.07761446 0.026424186 -0.031954292 -0.0569278 -0.08561164
-0.009595392 0.03724513 0.12869827 0.09370483 -0.03164521 0.16010149 0.077428676 -0.021104742
0.07421549 0.09490177 0.08090585 0.01914476 -0.021236839 -0.08176594 -0.04478716 -0.033555217
0.06373765 -0.1023057 -0.062525935 0.15351482 0.07859147 0.012892326 -0.112648316 0.12828381

convblock2.1.weight f4 [32]
00000000: 4bd5 db3e 6502 043f aa1c 0a3f 0619 d73e
00000010: b99b b93e 6842 033f 7f3f af3e 62b9 a23e
00000020: 3a45 053f 78ad dc3e 6c4d fe3e 179d e53e
00000030: 16ae bd3e 999e 083f 5205 f33e ff34 1c3f
00000040: 9557 5d3f 7a7c d43e 4bcd e53e f701 1c3f
00000050: f37b fb3e 28dd 213f 1456 fc3e d6a4 363f
00000060: b776 473f 7207 c43e 8601 d63e 6d88 2d3f
00000070: 0f15 023f ca7e ec3e 89fa b33e 8f83 0b3f
0.42936167 0.51566154 0.5394999 0.4201128 0.3625162 0.512732 0.3422813 0.3178206
0.52058756 0.43101096 0.49668443 0.44846413 0.3704688 0.53367 0.47464997 0.61018366
0.86461765 0.41501218 0.4488319 0.609405 0.49118003 0.6322808 0.49284422 0.7134527
0.7791552 0.3828693 0.41798037 0.67786294 0.5081338 0.46190482 0.3515208 0.5449762

convblock2.1.bias f4 [32]
00000000: aecb 283d f860 9abc 7122 d9bd 0f8a 163e
00000010: 6577 4ebe aa77 1a3e 099b a23e e26c 793e
00000020: 519c 5abe b658 c3bd 0546 993c e455 c6be
00000030: 8bfb a83d b4cd 4f3c 9ab8 3e3d b206 86be
00000040: 9841 6d3c 90b9 49be 425b 383e 7d79 543d
00000050: 1747 0dbe ad1e 573d 6225 f63d 965c 8cbd
00000060: ce26 b2bd e89c 23bd ca31 72be 64ef 6fbe
00000070: 8b0b e73d aad5 043e 9cb4 f93d f5b3 6e3b
0.04120987 -0.018845066 -0.10602272 0.14701103 -0.20162733 0.1508471 0.31758907 0.24357942
-0.21348692 -0.09538405 0.018710146 -0.38737404 0.08251103 0.012683321 0.04656277 -0.26176983
0.014480971 -0.19699693 0.18003562 0.051873673 -0.1379665 0.05251949 0.12018849 -0.06853597
-0.08698808 -0.03994456 -0.23651806 -0.23431164 0.112814985 0.12972131 0.12192652 0.003642318

convblock2.1.running_mean f4 [32]
00000000: ced8 d8be 3367 203c 9dc0 b6bf 2c66 45be
00000010: 0118 b63d 09b5 edbe acbb 57be cb20 13bf
00000020: 87a0 1bbe 6f5c e3be 7267 07bf 0f76 9d3e
00000030: 0d16 a63e 8a8f 36bf e45a 31bd dc53 e0be
00000040: 96d8 34bf 14ec 83bf ee18 63bf 66ea 87be
00000050: 873b 97bf a6cf 38bf d49c 56bd 27ba acbf
00000060: 899a 80bf d504 83bf 24e7 c93e f2ea 43bf
00000070: 26ad 50bf 6a18 d7be 04c8 28be 1077 8fbf
-0.4235291 0.00979023 -1.4277531 -0.19277257 0.08891297 -0.4642718 -0.21067685 -0.57471913
-0.15197955 -0.4440646 -0.5289222 0.30754134 0.32438698 -0.71312773 -0.04329957 -0.4381398
-0.70642984 -1.030642 -0.88709915 -0.2654602 -1.1815041 -0.72191846 -0.052395657 -1.3494309
-1.004716 -1.023585 0.3943416 -0.76530373 -0.81514204 -0.42010814 -0.1648255 -1.120821

convblock2.1.running_var f4 [32]
00000000: 4538 c93e a624 153f 8cf4 453f c75a 513f
00000010: c9fc cc3e 1635 6a3f b74b b83e 24d1 003f
00000020: fbaf 2b3f c5ca fa3e 29ca f73e 9db0 323f
00000030: f166 a83e d670 403f eb23 7a3f 10e0 193f
00000040: 833c 0140 4adc b53e 00c4 763f b933 863f
00000050: 05a1 563f 9b9b 3b3f d86f 4a3f 3368 0f3f
00000060: e0f5 253f e823 873e a8c9 0b3f 0840 6a3f
00000070: dabc 1f3f 4afd 033f b916 033f 56db 393f
0.39300743 0.58259046 0.77326274 0.8177914 0.4003661 0.9148725 0.35995266 0.50319123
0.670654 0.48982826 0.48396423 0.6980074 0.32891038 0.75172174 0.97711056 0.6010752
2.0193183 0.3551963 0.9639282 1.0484535 0.83839446 0.7328431 0.7907691 0.5601837
0.648283 0.26394582 0.5460458 0.91503954 0.6239754 0.51558363 0.5120655 0.72600305

transblock1.0.weight f4 [16, 32, 1, 1]
00000000: 790e 9ebe 55cb a2be ac9f 24be 612a 5cbc
00000010: 05c2 0dbe 3927 76be 387e 8dbd d6f0 7d3d
00000020: a238 2ebe f1d9 963e 6d9c 8bbe f0b1 0dbe
00000030: a3c5 a93c 6b01 8b3e 2bb7 2abe 53f3 babc
00000040: bb6d 253d fced b63d a408 573e 70ee 9cbc
00000050: 9e6e 013f 6785 7cbd 2cb5 a2be d750 cfbe
00000060: 27f6 9ebe 5e40 a93d 7a7e 8bbd c6cd f4bd
00000070: 5fb3 62be 9be8 1ebe a1b8 213e 1323 0c3f
00000080: c2c4 6c3e 9440 27be 9609 2fbd 2032 87be
00000090: 8dd8 613c bb9d c63d 1f27 9dbe 54a3 89be
000000a0: 98db 033f 002a da3d bebe 0bbe 3546 0b3b
000000b0: 7ffd 8fbe 7fe4 a73d 6aca b1be 67c4 093e
000000c0: bf08 983d 334d f03d dae5 c33d 26c8 81be
000000d0: c71d 24bd 2b1d f13c d197 64be efac 913e
000000e0: 3ef4 ba3e c0e9 6e3e 11ad 13be 7852 5bbe
000000f0: 1c88 d63d 2c5a b9bd 2509 a9be e588 5c3e
00000100: 3191 bfb9 064c a9be ead4 47be ad45 7abe
00000110: a08f 103e 22ed 58bd 9aee 8fbe e3b9 5cbe
00000120: a308 6ebc 528c 983e 0d95 53be 6299 713e
00000130: 8f9d b1bd 8854 69be a694 46be 73ac 1bbe
00000140: 0932 6dbe 658e 0ebe 9994 88be d405 f1bd
00000150: 0e58 19bd d823 85be a42e 31be ebbb 023e
00000160: 0830 73bc 6fe0 983d 0a29 98be d371 23be
00000170: a21b ae3e 8742 72be 415e 3bbe d463 85be
00000180: 82d6 10be 091f b2bd 87c2 6e3e f0ff e6bd
00000190: a224 64be d385 22bd cd71 513d e0ec 053e
000001a0: 7bef a3be 3baa 8ebd 5776 013e 7ee2 dfbc
000001b0: dabb 82bd 0b21 d33e 2547 973d 97a6 6b3d
000001c0: aff5 ddbd 27e0 5fbe 79db b23d dafd 113f
000001d0: f1a0 723d 7077 14be 2973 8fbe db50 64be
000001e0: e6bd bcbe 3a74 20be 6861 33be 330c 903d
000001f0: 1aa2 903d 80e8 55be 6e48 56be a72b a7be
00000200: 1c53 7a3e acb9 06be 92e4 fc3c e8f3 5bbe
00000210: bda4 eebd 598e 323f 74e9 f2bc 405a f8bd
00000220: 92c0 6ebc 7a17 a03e 4dad 1abe 1f6f 85be
00000230: a147 70bd 0056 a7bc 7b0b 8d3d 18ae 5f3e
00000240: 7524 08be 13b1 2d3e 7b8f 92bc a693 f7bd
00000250: 7c08 cebd a66a 34be 7c29 f8bd 1bd8 69be
00000260: 0dad eabc 8497 75bd 36a7 653d 1e47 07bd
00000270: 2499 f73c 5680 9f3d 7e0b 26be 3960 32be
00000280: 093d 97be 1d19 5dbd 31b7 cb3d 0540 8bbc
00000290: e42a 32bd e3f6 54be c776 2d3e d927 a83e
000002a0: 40a3 e23e 1db4 b53e f6b2 aabe e37c 72bd
000002b0: 0402 ab3d 357a 203e 2838 17be 782d 86bb
000002c0: d8b9 9c3e 2c4a fbbd 05b5 b23e 0711 59be
000002d0: bc7b 7ebe 07aa 16be 54ac e03c 5003 963e
000002e0: b6a2 7fbe 33b3 2e3c db6d 29be c3ac c9bb
000002f0: 03c3 9dbd f883 88bd e52f 98bc e5db 13be
00000300: 2d1d 09be f7b4 013d 50b1 a9bb f06c 77bc
00000310: 57ae 05bd a96f 6c3c 11b6 263d 41be 07be
00000320: 955b 22be 218c 98bc b93f 22bd cfff 05be
00000330: 7cd4 b5bd a4d1 43bc 15b2 e93b f12f 25bb
00000340: 0265 5c3f 5ce0 3bbc 9d6b 43bc d549 8e3c
00000350: 3d6f 3abe d745 f5bd 52d2 3e3c 7504 dbbb
00000360: af08 05be 6ade d73c 6035 acbd 5685 083d
00000370: d442 4abd 44cd cebd b184 0dbe 67c0 d03c
00000380: d0b4 cabb 9f21 f3bc eb68 34be 610c 71be
00000390: c534 89be 03d3 a0bd 89b8 90be dd7d 95be
000003a0: e7f0 323d 0ee2 15be 9412 2dbe 2e7c 9ebe
000003b0: b49f 08be 780f f43c 111e 2dbe 9c85 cb3e
000003c0: 63c7 39be 1f92 d1bc 1be2 3dbd 538a 82bb
000003d0: 28b9 133d 0f07 ae3e fb60 2c3e 7076 623b
000003e0: 349c d5bd c8f0 ecbc 5b53 e5bd 5e5a a9bc
000003f0: 4fc6 b4bd df1d 303e 0915 5bbd ed43 873d
-0.30870417 -0.31795755 -0.16076535 -0.013437838 -0.13843544 -0.240384 -0.0690884 0.061997257
-0.17013791 0.2946315 -0.2726778 -0.13837409 0.020724123 0.2714952 -0.16671436 -0.022821104
0.04038785 0.08932111 0.2099939 -0.019156665 0.50559413 -0.06165066 -0.31778848 -0.40491363
-0.31047174 0.0826423 -0.06811233 -0.11953311 -0.22138737 -0.1551842 0.15793087 0.5474102
0.23121932 -0.16333228 -0.04273375 -0.2640543 0.01378454 0.096980534 -0.3069391 -0.26882422
0.5150695 0.10652542 -0.13646981 0.0021251563 -0.2812309 0.08197879 -0.34724742 0.13453828
0.07423543 0.117334746 0.09565325 -0.25348014 -0.04006746 0.029432854 -0.22323538 0.2845225
0.36514467 0.23331356 -0.14421488 -0.21418178 0.104751796 -0.09050402 -0.3301479 0.21536596
-0.00036538535 -0.33065814 -0.19514814 -0.24440642 0.14117289 -0.052960522 -0.28111726 -0.21555285
-0.014528426 0.29794556 -0.20662327 0.23593667 -0.0867263 -0.22786152 -0.19392642 -0.15202503
-0.23163618 -0.13921507 -0.2667587 -0.1176869 -0.03743749 -0.2600391 -0.17302948 0.12766998
-0.0148429945 0.07464682 -0.2971881 -0.15961389 0.34005457 -0.2365819 -0.18297674 -0.26052725
-0.14144328 -0.08697326 0.23316394 -0.11279285 -0.222796 -0.039678406 0.05113392 0.13078642
-0.32018647 -0.06966063 0.126428 -0.02732968 -0.06383486 0.41236147 0.073866166 0.05753192
-0.10837876 -0.21862851 0.08733267 0.5702797 0.059235517 -0.14498687 -0.28017548 -0.22296469
-0.3686363 -0.15669337 -0.17517626 0.07033577 0.070621684 -0.20889473 -0.20926067 -0.32650492
0.24445766 -0.13156766 0.03087071 -0.21479762 -0.11652515 0.69748455 -0.029652335 -0.12126589
-0.0145722795 0.3126791 -0.15105172 -0.2606134 -0.05866206 -0.02042675 0.06886955 0.21843755
-0.13295157 0.1696208 -0.017890682 -0.120887086 -0.10060212 -0.17618808 -0.121172875 -0.22836344
-0.02864697 -0.05995895 0.056067668 -0.033026807 0.03022439 0.0778815 -0.16215321 -0.17419519
-0.29538754 -0.053979028 0.0994705 -0.0169983 -0.043497935 -0.20797305 0.16939841 0.328429
0.44265175 0.35488978 -0.3333966 -0.059201133 0.08349994 0.15671618 -0.14767516 -0.0040947758
0.30610538 -0.122700065 0.34903732 -0.21197902 -0.24851888 -0.14713298 0.027425922 0.29299402
-0.24964413 0.010662842 -0.16545813 -0.006154628 -0.07703211 -0.06665796 -0.018577525 -0.14439352
-0.13390036 0.031666722 -0.005178608 -0.015101656 -0.032636967 0.014430919 0.040700976 -0.1325617
-0.15855248 -0.018621506 -0.039611552 -0.13085864 -0.08878419 -0.011951838 0.0071318247 -0.0025205577
0.86091626 -0.011467066 -0.0119275125 0.01736919 -0.18206497 -0.119762115 0.011646824 -0.006683881
-0.12991594 0.026351172 -0.08408618 0.033330284 -0.04938014 -0.10097745 -0.13820149 0.02548237
-0.0061861053 -0.029679118 -0.17618148 -0.23539878 -0.26798072 -0.07852747 -0.2826579 -0.2919759
0.043686774 -0.14637014 -0.16901618 -0.30954117 -0.13342172 0.029792532 -0.16906 0.39750373
-0.18142466 -0.025582371 -0.04635821 -0.0039837747 0.03606525 0.3398976 0.1683387 0.0034555458
-0.10430184 -0.028923407 -0.111975394 -0.020672973 -0.08826887 0.17198895 -0.053486858 0.06604753

transblock1.1.weight f4 [16]
00000000: 06a9 3a3f f273 403f d1c1 073f e4d1 393f
00000010: 7500 1e3f 59c2 1c3f fd72 163f dc27 ea3e
00000020: b70d 273f 763b 163f a6d3 103f 5806 2d3f
00000030: 9205 483f 869c 223f 0962 013f 829b 2c3f
0.7291416 0.7517692 0.53030115 0.7258589 0.6171945 0.6123405 0.5876921 0.45733535
0.652553 0.5868448 0.5657295 0.67587805 0.781335 0.63520086 0.50540215 0.67424786

transblock1.1.bias f4 [16]
00000000: 5ebc 00bf 5f4b 28be f05e cebe b8a5 70be
00000010: 25fa 50be 6de1 fabc ebc2 203e e29e 233d
00000020: bf2a 64bf 06ac 37bd 505e 2fbf 3a55 cfbe
00000030: cc95 1ebf 17a8 9d3c 0bbf d93d 7f76 64ba
-0.50287426 -0.16435002 -0.40306807 -0.23500717 -0.20407923 -0.03062507 0.15699355 0.039946444
-0.89127725 -0.04484179 -0.68503284 -0.4049471 -0.6194732 0.01924519 0.10632142 -0.0008715167

transblock1.1.running_mean f4 [16]
00000000: 21ab c5be 3eba 55be 005a 4fbf 79fa 77be
00000010: 58fd 26be 7807 463d 1105 f73c 5ca1 b3be
00000020: 0ed6 cfbe 28d2 5bbc 3c2f e1be 263d 24bf
00000030: 8fca 28bf 3c6b e0be 48c0 4ebd 15c5 48be
-0.38607123 -0.20871827 -0.80996704 -0.24216641 -0.1630758 0.048346967 0.030153783 -0.35084045
-0.40592998 -0.013416804 -0.4398135 -0.64155805 -0.6593408 -0.43831813 -0.050476342 -0.19606431

transblock1.1.running_var f4 [16]
00000000: 19db f03d eeda 043e b5f6 943d 00fb fd3d
00000010: fa33 1b3e 6a1e 083e f3fe 843d 440e 703d
00000020: 7bbf a13d 0706 9d3d d44f 8b3d e0ef ee3d
00000030: d0dd c43d 094d e13d 1693 053e 2b6a 5f3e
0.117605396 0.1297414 0.07273618 0.1240139 0.15156546 0.13292852 0.0649394 0.058607355
0.0789785 0.07667165 0.068023354 0.11666846 0.0961262 0.110010214 0.1304439 0.21817844

convblock3.0.weight f4 [32, 16, 3, 3]
00000000: 91a2 663e bf7f 9cbb ad1b 40be 0d29 943e
00000010: 7a33 973d 6d8c 323e 01b2 6e3c bb29 583e
00000020: 22ed 493e 0976 6b3e 84af 07bd 0f0e c83d
00000030: 178c ebbc 76de 17be 362e b6bc cb54 babe
00000040: dcd4 b9bd 0bd3 263d 7781 723c 10b0 1dbd
00000050: 5a89 8cbe 288f e0bd 2756 ff3c 6d78 0cbd
00000060: cc77 313e daee 293d adba e43d 8ee3 97bc
00000070: e093 8dbd f337 043e 0292 7c3d 37bc e3bb
00000080: f67d 903d 11bf bd3d 435b cb3c 3f18 ef3d
00000090: ad1e 273e 9298 de3d 8561 02bd 061c d6bd
000000a0: 4f7f 51be 4555 97bb 97f4 a6be afd9 12be
000000b0: 8cf4 9a3d af3f 423e 768e 9abc f300 213d
000000c0: 2c4b 0a3d e439 d4bd 6967 6f3d 4096 2bbc
000000d0: 9728 393d 2ead 8b3e 9536 cb3e 1514 c1bd
000000e0: f7ae ccbe 348c 183e 1b07 56ba 0347 13be
000000f0: 1d10 c5bb 502c 0dbe 50d1 9e3b 20df a83d
00000100: a702 70bd e347 34be ad14 9ebd 9a9a b2bc
00000110: ada9 12bd db9b 5fbe 7e64 953d 6340 af3d
00000120: b64d 183e fa62 67be 3da8 d0bb b227 553e
00000130: 8630 7dbe 2364 94bd 678a a53e a127 8abd
00000140: 4256 383d 504d 483e 6b04 2a3e 0506 07bd
00000150: e0a2 6d3c e208 c3bd aad5 853d ae39 80be
00000160: 02d9 17be 03f9 3e3d 0dd3 603b 4c2b 033e
00000170: ac64 f33e 4ab8 9bbd ccdb 083d 0faa 6a3e
00000180: 808e d7bd 8707 d53d e300 003e f767 0cbd
00000190: bf36 94bd 6d32 10be 19e5 9dbd 9332 c5bd
000001a0: e4c8 fcbd 9f9f 0fbd d959 933d 63d7 883d
000001b0: 5935 2e3e 5990 633e 8d07 f8bb 047a af3d
000001c0: 8e94 df3d 4e70 7fbd 09c7 cc3b 104a 2d3d
000001d0: f460 e5bc 27aa d2bd 5819 963d 7f1a 9e3c
000001e0: bd1b 633d 47e1 f93d 34f5 e9bb 1bbe 3b3e
000001f0: 7faa a43d 74aa 92bd 5a69 6ebc 7412 22bd
00000200: f765 ec3d 41e6 a9bd 3017 84bd ede1 eabd
00000210: 6529 24bd 2ffb 81be 551f 78be 3cad a33c
00000220: a15c c43e b259 043f 865a 0c3b 6a94 e5bc
00000230: 22c4 503e d20d 5a3d 2b97 04be 6aa1 b6bc
00000240: 7fda 563c 068c 063d fa0a 4fbd 925f 98bd
00000250: 902c a23b 040d 4dbe 6a84 603d 30da 71bd
00000260: 8b43 8abe 4da9 fabd 9b68 c43d 2a5c fc3b
00000270: 27be 05bd 37b2 f93c e58b cbbd b38b 883d
00000280: 4fbe 4d3c c511 56bd 01a6 b0ba 5fce e43d
00000290: ef0f ffbd 6ca7 cd3d d6a9 f0bc bd2a 5ebe
000002a0: 53c4 1a3c eabc 3abd d9f0 5dbe 54ba 5abc
000002b0: 372a 26bc 2650 64be fef7 4c3e 479d 96bd
000002c0: 93c0 9abe 4a0a 0b3e b5ce f0bc 18b2 b9be
000002d0: 1579 2abd 2274 89bd d45e f6bd 8b9d 163d
000002e0: 90aa 09bd e592 e4bd 08f6 c43c 51a8 c0bd
000002f0: 3d5b 6bbe 4f61 8fbd 3aa2 4bbc 53e4 f93c
00000300: fb9a d63a 6e06 0ebd e665 afbd cf72 15bc
00000310: 13c8 04be a245 d3bd bbdd 913d 2e4b 253e
00000320: 023d a13d 7fe8 f33d ffe3 373e 4295 aa3d
00000330: 1342 8cbc e957 3a3e 47e6 2e3d 19cf 663d
00000340: 7d4f 123e 5bcb 513d 860c 4c3d d3e3 ab3d
00000350: 246b 3ebc 0ba8 503e 085f 143d 1fa9 bcbd
00000360: f26a d6bd b9cf 1cbe 3e3b 2abe ca8c aabe
00000370: a868 50be 57ea d0bd 55cc 95be 4e3e c2bd
00000380: 6d42 ccbc d57f 893d 5d34 c2bd b457 b73d
00000390: 9c24 983d a332 b43d 1cf1 ea3d c6f9 d13d
000003a0: 0a0a e43d 0b2f aebb 4135 543e 44e1 3a3e
000003b0: 37ff 95bd 54c3 db3d e09d 2b3e 3e18 5bbd
000003c0: 917c a63e ab89 8d3c 2bc9 fcbd fd3b e13d
000003d0: 44c1 db3d e3c9 db3d 2349 edbd 4d78 f23d
000003e0: 756e 853d 4a1c 4d3d 0406 503e 2131 73bd
000003f0: f128 06be 9594 6a3c b9a6 833d ce30 eebd
0.22522952 -0.0047759707 -0.18760557 0.2893757 0.07382865 0.1743638 0.014568807 0.21109669
0.19719365 0.22994246 -0.03312637 0.097683065 -0.028753323 -0.14830956 -0.022238832 -0.36392817
-0.09073803 0.04072861 0.014801375 -0.038497984 -0.2744854 -0.10964805 0.03116901 -0.034294534
0.17330855 0.041487552 0.11168418 -0.018541124 -0.069129705 0.12911968 0.06166268 -0.006949927
0.07055275 0.09264959 0.02482379 0.116745465 0.16320296 0.10868944 -0.031831283 -0.10454564
-0.2045872 -0.004618319 -0.32608482 -0.14340852 0.07566175 0.18969606 -0.018866759 0.039307546
0.033763096 -0.10362604 0.05844823 -0.010472834 0.045204725 0.27280563 0.3969008 -0.094276585
-0.39977238 0.14897233 -0.0008164511 -0.14382558 -0.0060138837 -0.13786435 0.0048467293 0.08245683
-0.05859628 -0.17605548 -0.07718787 -0.021802235 -0.035806347 -0.21836798 0.07294558 0.08557203
0.14873394 -0.2259635 -0.006367712 0.20815924 -0.24725541 -0.07245662 0.32332155 -0.0674584
0.045004137 0.19560742 0.16603248 -0.032964725 0.014504164 -0.09523179 0.06534894 -0.25044006
-0.14828876 0.046624195 0.0034305484 0.12809485 0.47537744 -0.0760351 0.03341274 0.22916435
-0.105252266 0.10401826 0.12500338 -0.034278836 -0.072370045 -0.14081736 -0.077097125 -0.09628787
-0.12343004 -0.035064336 0.071948715 0.06681707 0.17012538 0.22223033 -0.0075692595 0.085681945
0.109170064 -0.06236296 0.006249313 0.04230696 -0.028000332 -0.1028636 0.07329053 0.019299744
0.055446375 0.12201171 -0.007139826 0.18334238 0.08040332 -0.071614176 -0.014551485 -0.03956838
0.11542886 -0.082958706 -0.06449735 -0.11468873 -0.04007854 -0.2538695 -0.24230702 0.019980066
0.3835192 0.51699364 0.002141626 -0.02802487 0.20387319 0.053235836 -0.12948291 -0.022293765
0.013113617 0.03284838 -0.050547577 -0.074401036 0.00494916 -0.20024496 0.05481378 -0.05904597
-0.27004656 -0.12239323 0.095902644 0.0077014165 -0.032652047 0.030480487 -0.09938792 0.066672705
0.01255758 -0.05226304 -0.0013477207 0.11172175 -0.12454211 0.10041699 -0.02937786 -0.21695991
0.009446221 -0.04559032 -0.21673907 -0.013350088 -0.010141901 -0.22296199 0.20016477 -0.07354217
-0.30225047 0.13578144 -0.02939544 -0.36268687 -0.04161938 -0.06711604 -0.12029806 0.03677134
-0.033609927 -0.111608304 0.024043098 -0.09407104 -0.22984023 -0.07000982 -0.012428815 0.030504381
0.0016373092 -0.0346741 -0.085643575 -0.009121611 -0.12966947 -0.10316016 0.0712237 0.1614196
0.078729644 0.119095795 0.17958067 0.0832925 -0.01712135 0.18197598 0.04270008 0.056349847
0.14288135 0.051219326 0.04981663 0.083930634 -0.011622224 0.20376603 0.03622344 -0.09211945
-0.10469617 -0.15313615 -0.16624162 -0.3331054 -0.20352423 -0.10200947 -0.29257455 -0.0948454
-0.024934018 0.06713835 -0.09482644 0.08952275 0.07428858 0.08798721 0.11471769 0.102527186
0.11134727 -0.0053156666 0.2072344 0.18249995 -0.07324069 0.10730615 0.16759443 -0.053489916
0.32516912 0.01727756 -0.12343057 0.1099777 0.10730222 0.10731866 -0.11586215 0.11839352
0.06515209 0.050075807 0.20314795 -0.059373025 -0.13101555 0.014317651 0.06428284 -0.116304025

convblock3.1.weight f4 [32]
00000000: 77be 043f 4468 253f d09d f13e 8bfc 1a3f
00000010: 9cbb 383f d777 0d3f 0a9f 333f fb05 0c3f
00000020: 198a 1f3f 55dc 1a3f e55a 363f f4a2 e63e
00000030: 89f9 103f 06af 093f 3da5 083f 8f68 223f
00000040: 0e08 433f 4cf2 4c3f 7123 133f f5df 083f
00000050: 21a1 043f 78ca fe3e 1bcc fe3e 6135 b63e
00000060: 46b9 6c3f c4bf 0d3f f22b 0a3f 6910 113f
00000070: 712d 193f e039 e23e a0dc 2a3f 15fe 463f
0.51853126 0.6461222 0.47190714 0.605416 0.7216127 0.55260986 0.7016455 0.54696625
0.62320095 0.6049245 0.71232444 0.45046198 0.5663076 0.5378269 0.53377134 0.63440794
0.76184165 0.80057216 0.57475954 0.5346673 0.51808363 0.49763846 0.49765095 0.355876
0.92470205 0.55370736 0.53973305 0.56665665 0.59834963 0.4418478 0.667429 0.7773145

convblock3.1.bias f4 [32]
00000000: b762 59bf f2ea 55be e5d1 49be 140d eebe
00000010: c337 dcbe 26b5 07bf 527a 33bf b549 d6be
00000020: 39ea ecbe 18b9 52bd 4796 a2be 7ff1 57be
00000030: 8dbc 82be 63c9 f3be c425 33bf 5ac9 90be
00000040: ce8f efbd 4949 93be 48b4 f03d 1cca d3be
00000050: 0af1 43be d432 cfbc deb3 49be 412f 6cbd
00000060: ec62 acbe aa69 8bbe ea48 debe c552 bcbe
00000070: 12ba 87be 157c 03be 4178 dbbe 38c5 adbd
-0.8491625 -0.20890406 -0.19708975 -0.46494353 -0.43011293 -0.53010786 -0.7010852 -0.4185311
-0.46272448 -0.05144605 -0.31755278 -0.21088217 -0.25534478 -0.47614583 -0.699795 -0.2827862
-0.116973504 -0.2876685 0.11753136 -0.41365135 -0.19134918 -0.025292791 -0.1969752 -0.057662252
-0.3366922 -0.27229053 -0.43415004 -0.36781898 -0.26509148 -0.12840302 -0.42865184 -0.08484882

convblock3.1.running_mean f4 [32]
00000000: 71f5 e33e d1bc 73bd 1af6 793c 9600 bc3f
00000010: 90a9 943d f360 613f 663a 17bf 2bfd c33e
00000020: 282a 79bf de6f a1bf 16b5 31bf 8ee0 eabd
00000030: 2ace 06bf e76b ab3e 828b a13f 3eee 1fbf
00000040: eb1b 88bf e5a0 b2bf 8e99 92bf cacd a83f
00000050: cf64 d8bc 2827 47be 2b51 c7be 5a3d 6b3f
00000060: 1835 a6bf 8c1a 35be cef5 a53e f546 263f
00000070: d9be 663d c809 7c3f 1b7d 19bf 2d53 b1bf
0.44523194 -0.05950624 0.015256429 1.4687679 0.07258904 0.8803856 -0.59073484 0.3827909
-0.9732995 -1.2612264 -0.6941694 -0.11468612 -0.5265833 0.3348076 1.26207 -0.62472904
-1.063352 -1.3955351 -1.1453111 1.3187802 -0.026415257 -0.1944853 -0.38929114 0.9189049
-1.2984953 -0.17685908 0.32414097 0.6495202 0.05633435 0.98452425 -0.5995652 -1.3853508

convblock3.1.running_var f4 [32]
00000000: 9f7d ae3f c018 f23f 0a27 0c40 0942 1640
00000010: d87f 4940 8a1a 1940 f5d1 2b40 6777 f63f
00000020: b409 1b40 1889 1940 9f2c 4240 e916 933f
00000030: 728b f13f 5c53 f93f 1958 3240 0d71 2640
00000040: 76ee ef3f 0996 3540 3a94 0140 ea51 1640
00000050: 8403 d53f aad9 ee3f 0309 eb3f cb82 9d3f
00000060: ead5 4240 506f c23f d105 f73f 2c32 1940
00000070: 8066 0e40 a8d8 d83f 2956 3140 fc53 1140
1.3632087 1.8913803 2.1898828 2.3477805 3.148428 2.3922448 2.6846898 1.9255189
2.4224672 2.3989925 3.0339735 1.1491367 1.887068 1.9478564 2.786627 2.60065
1.8744648 2.8372824 2.024672 2.3487496 1.6641698 1.8660176 1.8362125 1.230554
3.0443063 1.519022 1.929865 2.3936872 2.225006 1.6941118 2.7708838 2.270751

transblock2.0.weight f4 [16, 32, 1, 1]
00000000: 47e7 02be 49af 7fbd aef5 b73e 99b4 a5be
00000010: 41df a6be a051 96bd 4483 cfbe 9e5f 3bbe
00000020: 53ae 71be 8c08 97be 82cb 05bd 36a5 583d
00000030: 6adf 4f3e 06b8 7d3e 535c a4bd 41bd 38be
00000040: 6882 c7bd 0369 6abd 89c7 4dbe bb9d b4bd
00000050: e391 02be e6b7 3c3c 7718 b03e 6a3f 48be
00000060: dff6 fa3d 392c 57be 6644 c23e 8d67 9cbe
00000070: b272 a63e b060 6ebe 03f3 2b3d fdaf b5bd
00000080: 41cf 73bd 9169 afbd 6fbf 3ebd 2e5c afbd
00000090: dc1d 963e 8fea 13bd cb26 dabd 13e1 3cbe
000000a0: c399 ea3d 2d84 47be 059e 34be b1be a03d
000000b0: 0e8d f5be 8ecf 173e 5e80 00be cc6e 18be
000000c0: 8a7b 97be a879 b5be cc24 cfbd 80c9 123e
000000d0: a9d0 a4be c0a2 c2bc 52d0 cb3b 16af 2ebe
000000e0: 4d44 153f fb3d 27be bf71 b83d ec27 8f3e
000000f0: 4cc8 59be d621 043e 30fa 3d3d 89ad 71be
00000100: 2671 953e d207 293d 24ae b03c e2b9 403e
00000110: f245 f8be 0f0d 7e3e 3e9b 873d ca8b 83be
00000120: 3ed3 ce3c 9a9e 2dbe 0696 17be 6f2a c73e
00000130: d423 ed3d 306f 44be d58a f939 a689 38be
00000140: 0378 2dbe 632d bcbe a7bb 57bb 27cb 22bd
00000150: 2a23 ccbd 2ba6 68be 9a8c f9bc 4c13 743d
00000160: 4c64 89be ef61 afbe b328 44be 9389 9ebe
00000170: 95a5 863e 1ef4 0abe 3b22 213f f05e fabd
00000180: cc93 5abe 373f 113e 3a74 88be afb1 2dbe
00000190: 49b4 533e 5b5d a1bd 1efa 77be a5a6 c7bd
000001a0: ab60 43be 767d 613e 99ee f83e a9b5 fd3c
000001b0: 546b 49be 552e 173d ee3f d1be 055d 25be
000001c0: fd6a 06be 72f7 a6bd 687f b43e 802e 573d
000001d0: 740f 9b3e f754 323e fb6d 2fbe 5359 7dbd
000001e0: 26dc 4fbe 5266 3d3d 2697 2dbe 9f37 7ebd
000001f0: 9cd6 243e db8c 5e3e c315 95be d290 16be
00000200: 55b2 8bbb 6f0e 3cbe 43ba a83e 3351 fbbb
00000210: cc8d 12be 65b6 d53e 2f8f 70bd cf7f 9bbe
00000220: 14f6 d4bd 9372 00be 5433 fbbd 6bad 22be
00000230: 29db 83be 845f 2f3c e449 a83e b744 cdbd
00000240: e064 973d 4725 85be f72b 4bbb 8431 e2be
00000250: 66fc de39 660c 3e3d 4daf 6dbe 4097 4cbe
00000260: 7b17 3cbe 7fa6 06be 6c69 a13e bade 05be
00000270: c768 95be 1313 c63e 664b 9cbe d820 24bd
00000280: 53cc 0fbd 702f 51be ce6c fe3d 2c3d 78be
00000290: b46c 263e 74e4 ca3e 5eea 97bd 64bf 2c3f
000002a0: 4dac 9d3b 0c3b 323e d427 b63d 7d8e 03be
000002b0: 07f9 0dbe 91e8 a83d 6518 77be 60f8 c13e
000002c0: f981 afbe c5d1 9a3e 1b02 98bd 7e8d 7a3e
000002d0: bfe4 a4bd d2f6 0e3e a5dc e1be b51d ae3e
000002e0: 71b8 9b3e b29c ae3e bd44 32bd 1e51 693d
000002f0: fe4a 83be f35f 31bd ae8e 96bd c22e 63be
00000300: 9c2e 3fbe e57d f6be 179b b1be e35d cb3e
00000310: de67 85bd 50a8 4fbe c448 4c3f 7dde 0ebd
00000320: aa8e 8abb f1f4 933d 1164 09be 9469 88be
00000330: e06a 5a3e 69d8 e93d 253e 053f dd06 20be
00000340: bcaa acbd f781 c8be 90b5 3ebd fead aa3e
00000350: 593f 64be 6120 dc3d 164e 50bd 982b 0b3e
00000360: d147 1c3e 6f95 5b3e efe9 6ebe 68fb a4bd
00000370: d0c2 8ebe 018c 983d 2fd7 63bd d271 87be
00000380: 5c76 4dbe 187b 8cbd beab 773c 2023 d1bc
00000390: 41b2 85bd 74ea 3fbe dfe7 a3bd 8659 153e
000003a0: 61a3 253f 2e75 473e b391 60be 9395 89be
000003b0: 26e9 9cbe 5142 cebe 72c6 63bd 837b d83d
000003c0: 7351 dbbe 11ca 48be b474 1a3c 6b3a d93e
000003d0: 8666 b9bd 0e5a a6be 6868 c33d e72f b83e
000003e0: c746 5dbe 2589 d9bd 0224 093f e92c 45be
000003f0: 4a14 6fbc 569a cebd 6791 363e 4dba 1a3d
-0.12783538 -0.062423024 0.35929626 -0.32364348 -0.32592204 -0.073397875 -0.40529835 -0.18298194
-0.23601656 -0.29498708 -0.032664783 0.052891932 0.2030007 0.2477723 -0.08025422 -0.18040945
-0.0974167 -0.057229053 -0.20095648 -0.08819147 -0.12750964 0.011518454 0.34393665 -0.1955544
0.12254118 -0.21012963 0.3794281 -0.30547753 0.3250938 -0.23279071 0.0419798 -0.08871458
-0.059523825 -0.08565057 -0.046569284 -0.08562504 0.29319656 -0.036112364 -0.106519304 -0.18445234
0.11455109 -0.19484015 -0.17638405 0.078488715 -0.4795918 0.1482527 -0.12548968 -0.14886016
-0.2958644 -0.3544438 -0.1011444 0.14334679 -0.32190445 -0.023759246 0.006219902 -0.17058977
0.58307344 -0.16332237 0.0900607 0.27960145 -0.21267813 0.12903532 0.046381176 -0.23601355
0.29187888 0.041267224 0.021567412 0.18820909 -0.48490864 0.24809669 0.06621407 -0.25692588
0.025247212 -0.16955033 -0.14803323 0.38899562 0.11579099 -0.1918304 0.0004759642 -0.18021259
-0.16940312 -0.36753377 -0.0032918246 -0.039744522 -0.099676445 -0.22719638 -0.030462552 0.059588715
-0.26834333 -0.34254405 -0.1915615 -0.30964336 0.26298204 -0.13569686 0.62942857 -0.12225139
-0.21345443 0.14184271 -0.26651174 -0.16962312 0.20674242 -0.07879134 -0.24216506 -0.09748582
-0.19079845 0.22020516 0.48619536 0.030970411 -0.19669849 0.03690942 -0.40869087 -0.16148765
-0.1312675 -0.08152665 0.35253453 0.05253458 0.30285227 0.17415224 -0.17131798 -0.061852764
-0.20298824 0.04624016 -0.1695219 -0.062064763 0.16097492 0.2173342 -0.29118165 -0.14703682
-0.004263202 -0.18364881 0.32954606 -0.007669592 -0.14311904 0.41740718 -0.0587303 -0.30370948
-0.10398498 -0.12543707 -0.122656494 -0.15886466 -0.25753143 0.010703925 0.32868874 -0.10022872
0.07392287 -0.26005003 -0.0031001547 -0.44178402 0.0004253119 0.046398543 -0.23211403 -0.19979572
-0.18368332 -0.1314945 0.31525743 -0.13073245 -0.291815 0.38686427 -0.30526274 -0.040070385
-0.035106968 -0.20428252 0.124230966 -0.24242085 0.16252404 0.3962742 -0.07417749 0.6747954
0.0048117996 0.17405337 0.08894315 -0.12847324 -0.13864528 0.082474835 -0.241304 0.37884808
-0.3427885 0.30238166 -0.074222766 0.24468037 -0.08051442 0.13961342 -0.4411365 0.3400704
0.30414155 0.34103924 -0.043522585 0.056962125 -0.25643152 -0.043304395 -0.07351433 -0.22185805
-0.18670124 -0.48142925 -0.34688637 0.39720067 -0.06513952 -0.2027905 0.7979853 -0.03488015
-0.0042284327 0.07224453 -0.13417079 -0.2664305 0.21329832 0.1141823 0.5204795 -0.15627618
-0.084310025 -0.39161655 -0.04655987 0.3333587 -0.2228979 0.10748363 -0.05085572 0.13590848
0.15261771 0.21443723 -0.23331426 -0.080557644 -0.27883005 0.074485786 -0.055625137 -0.26454026
-0.20064682 -0.06859416 0.01511663 -0.025529444 -0.0652814 -0.1874178 -0.0800321 0.14584932
0.6470242 0.19478294 -0.2193058 -0.2687193 -0.30646628 -0.4028497 -0.055609174 0.10570433
-0.42835578 -0.19608332 0.009427238 0.42427382 -0.09052758 -0.3249058 0.09541398 0.35974047
-0.2160903 -0.10621861 0.5357057 -0.19255413 -0.01459224 -0.10088031 0.17828904 0.037775327

transblock2.1.weight f4 [16]
00000000: 7663 243f a894 fc3e d616 1b3f 9e77 183f
00000010: c0eb 0f3f 4d13 313f 0af8 3d3f ed7f 143f
00000020: 1c7c 3b3f ffb9 fa3e ea91 353f 9351 393f
00000030: b80c 0c3f 8ab6 013f 4d0c 0c3f 68b5 323f
0.64214265 0.49332166 0.6058172 0.5955752 0.562191 0.69170076 0.742066 0.580077
0.7323625 0.4897003 0.7092577 0.723901 0.5470691 0.5066916 0.5470627 0.69808054

transblock2.1.bias f4 [16]
00000000: b181 49be 5538 a5be 49e0 e7be 7caa c4bd
00000010: eb82 05bf 3a77 2cbf 1999 31bf 136b 99be
00000020: c967 d6be 011a d7bd f5df 2dbe abbe 38bf
00000030: 11a7 b2be fe5f 723f 4b75 8fbe 6afe 0dbf
-0.1967838 -0.3226954 -0.45288303 -0.0960283 -0.5215289 -0.67369425 -0.69374233 -0.29964504
-0.41876057 -0.10503007 -0.16979964 -0.72165936 -0.34893087 0.9467772 -0.28019175 -0.5546633

transblock2.1.running_mean f4 [16]
00000000: 88e0 85be 041f 80be f969 98be 2eaf e53c
00000010: 825b 72be b2a5 a63d 6dc4 26be fc26 32be
00000020: 46df abbe 474f 6fbd 0577 a83d 4e32 04bf
00000030: ac35 80be eec8 0bbf 64b8 07be 20ce 83be
-0.26147866 -0.25023663 -0.2976835 0.028037634 -0.2366772 0.081370726 -0.16285868 -0.17397684
-0.33568782 -0.058425214 0.08225826 -0.5163926 -0.25040948 -0.5460347 -0.13253933 -0.25743198

transblock2.1.running_var f4 [16]
00000000: d941 083e 500d 963d 35c9 fa3d dafb fd3d
00000010: b049 b13d c2e2 3f3e f79a 173e cdc2 263e
00000020: ebdb 643e 753a be3d 54fe 343e 7fe6 273e
00000030: 9dd4 c73d ddb1 133e f10d e93d 9f7a e43d
0.13306369 0.07326758 0.122454084 0.124015525 0.08656633 0.18738845 0.14805208 0.16285248
0.22349517 0.092884935 0.17675143 0.16396521 0.0975735 0.14423318 0.11379612 0.111562006

convblock4.0.weight f4 [32, 16, 3, 3]
00000000: 3de5 0abe 6531 7d3c 1a3b 55bc 6e24 18be
00000010: 8462 bdbd 7331 6dbd 27f2 d3bd 18cc b03c
00000020: f018 b7bc f4b0 c13c 4d6a fb3d f666 383e
00000030: a8dc 13be b1d4 20bd 5e2d da3d 6edd 0d3c
00000040: 5462 503e ecad 3b3e 01e5 5fbd 31ee 9d3d
00000050: 7f6f 2abd 4acd d2bd aa62 363e 3f8f c838
00000060: 089e 14be 4940 84bd f111 91be f702 213e
00000070: 9f68 ccbd 0f83 473d 1ce4 903d 7da6 acbd
00000080: dca9 3e3e 4b43 b3b9 8a6c 113d 03bb cbbd
00000090: ca4a b7bd 8ba0 d1bd 1eb2 59be 3793 5abd
000000a0: 7095 d6bd 2f38 b6bd 50af 133e a0d7 cebd
000000b0: a772 76be e6be 74bc b432 62bd 17e7 28bd
000000c0: b714 4abe 57ce 4e3c 56f6 b7bd aac7 06be
000000d0: c949 393d 2b13 9dbd 1a75 0fbe 3ae1 2bbc
000000e0: 810e 7abd d13c 1fbd 8b8d 65bd 98e2 57be
000000f0: baec 4abe bd5c 99be 73a0 dfbe 9efc 303e
00000100: 530f 463d b428 c4bd a78c 353e 0510 4f3e
00000110: fb60 02bd 6486 a03d 5c41 7b3e 1524 42bd
00000120: aa41 5d3d 127c 923d f9da 8a3b 4df4 bebc
00000130: d8ac ae3d c9e0 52be 5e1f 07be b351 b1bd
00000140: 78cf 6cbe c5a0 2dbd a198 47bd 4945 e1bb
00000150: 0e34 32bd 3434 1dbe 180d a3bc 718c 4b3d
00000160: 6801 15bc e8d0 1abd 2cc4 77be 8c11 88be
00000170: 2ee9 a4be 1df8 3dbe 12e6 ecbd 1ac4 0dbe
00000180: 22d6 b8be c80b f5bd 8a9f f4bd 1305 723e
00000190: 3d3b f13c e154 a13d c456 88bd c270 3e3d
000001a0: 1746 9abd 88be a13e f0cc 1abd 6a13 6fbe
000001b0: db1b bcbc b4a2 713d 91f7 3dbe 013e 063e
000001c0: 2fe1 873d cfee ccbd 8814 603d 68ef cd3c
000001d0: 00b9 02be d8a3 913e 4609 083e 9d04 423e
000001e0: 9adb 423e 5199 5e3e cf4d 853e b6cb 4fbb
000001f0: 0dd9 55bd f098 66be 9a1e 54be 8fa2 a3bd
00000200: 5534 e3bd b8b2 4cbe 5b26 693c 9590 46be
00000210: e502 3abe 18a9 c6bd c787 9ebe 1256 db39
00000220: dd36 ca3c b782 ba3d 2e42 96bd 8a5e ec3d
00000230: 259d 7a3d ab71 58bd 765e e93d f73e 093d
00000240: bd99 9cbe b5bb 20bc 106e 1c3d 2590 993d
00000250: 9d2f 633e d3f4 423d 126e 67bd 6357 a2bb
00000260: 30ca eabe f5a4 f6bd 705d 5bbd a325 53be
00000270: 2719 bd3d ffef d23d 1b47 c1bb 8e24 2a3e
00000280: 53bd 8b3e 40dd 5a3e df27 bdbd bd6e 5dbe
00000290: 3096 123d 16fd 08bd f0d4 6ebd 7463 483e
000002a0: 162e 333e 6570 adbd d6c0 3cbd d31e ccbd
000002b0: 3e4b be3d 90b3 733d 98ab 8c3d 9c26 7b3b
000002c0: d41e 95bd 4711 b0bc c8e7 2ebd b11a 403d
000002d0: 473c e4bc 5088 66bc b3d1 dabc 31e6 443d
000002e0: 5f33 b4bc d9bc 4cbd 9801 d1be e7ea 8fbe
000002f0: 7c8f 40be 873b 5dbd d41c 2d3d 07ac 08be
00000300: 878d 99bd 4f55 0fbd 44c6 61be d39b 803d
00000310: e4b3 fa3d b11d b2bd c730 8bbd 19cc 55be
00000320: ef69 36be e5c9 0abe 7c09 e7bd 6c8a 463e
00000330: eef3 b9bd 84ac cdbd 8483 d33c 91f5 063d
00000340: 504a 8a3c 3439 96be e039 ae3d 2b43 c73d
00000350: 5804 a0bd 0d80 c03d 0b5e 26bd 0e74 063e
00000360: a030 dbbe 2734 e1bd a0c5 b83d b45e a3be
00000370: 9760 8e3c a4e9 ffbc 8925 ddbd 6c66 c83c
00000380: 8d39 51be f35f 0e3d 93a2 8f3c 43e0 8abe
00000390: 7055 97bd 431b a8bd 819d 71be 75fb 47be
000003a0: 3aa7 c0bd 7609 10bd 5708 b33c 5945 413c
000003b0: cb39 923d 985a e9bd 56c4 93bd b0fa 223c
000003c0: 386a cdbc dc04 e93c 12da 3b3e a448 febd
000003d0: e77f ddbd a50a 35be 514a b7bd 2bbd f03c
000003e0: 04e3 32be 8c9c 97be 0146 edbc cb81 12be
000003f0: fd68 1fbc 6f28 cd3d b846 b13d 0169 013e
-0.1356401 0.015453671 -0.013014579 -0.14857647 -0.09247306 -0.057908487 -0.10348921 0.021581694
-0.022350758 0.023643948 0.12276135 0.18008026 -0.14439642 -0.03926534 0.10653184 0.00865875
0.20350009 0.18328065 -0.054661755 0.07711447 -0.041610237 -0.10293062 0.17811075 9.563425e-05
-0.14513409 -0.06457574 -0.28334 0.15723787 -0.099808924 0.04870897 0.070747584 -0.084301926
0.18619484 -0.00034191678 0.0355039 -0.09947779 -0.08949812 -0.10235699 -0.21259353 -0.05336305
-0.10477722 -0.08897435 0.14422345 -0.10099721 -0.24067174 -0.014938092 -0.055224136 -0.04123601
-0.19734465 0.012622437 -0.08982532 -0.13162103 0.045236383 -0.076696716 -0.14009514 -0.01049071
-0.06104899 -0.03887636 -0.05604319 -0.21082532 -0.19816867 -0.29953566 -0.436771 0.17283866
0.048354458 -0.09578076 0.17729436 0.20220955 -0.03183077 0.07838133 0.24536651 -0.04739769
0.0540177 0.07152571 0.0042375294 -0.023309851 0.08529061 -0.20593561 -0.1319556 -0.08658161
-0.23126018 -0.04238965 -0.048729543 -0.0068747145 -0.043506674 -0.15351945 -0.019903705 0.049694482
-0.009094574 -0.037796885 -0.24195927 -0.26575887 -0.32209152 -0.18551679 -0.1156732 -0.13844338
-0.3610087 -0.11965138 -0.11944492 0.23634748 0.029447192 0.078775175 -0.06657174 0.046494253
-0.075329 0.31590676 -0.0377931 -0.2334725 -0.022962501 0.058993056 -0.1855147 0.1310959
0.06634747 -0.100064866 0.05470708 0.025138572 -0.12765884 0.28445315 0.13284788 0.18947072
0.19029084 0.21738173 0.26035926 -0.0031707115 -0.05220895 -0.22519279 -0.20714799 -0.0798999
-0.11093966 -0.19990051 0.014230336 -0.19391091 -0.18165167 -0.09700221 -0.30962965 0.00041835062
0.024684364 0.09106963 -0.073368415 0.115414694 0.06118502 -0.052842777 0.1139497 0.033507314
-0.30586043 -0.009810378 0.0381909 0.074981965 0.22186132 0.047596764 -0.056501456 -0.004954265
-0.45857382 -0.12043182 -0.053555906 -0.20619826 0.09233313 0.10299682 -0.005898369 0.16615507
0.2729288 0.21373463 -0.092361204 -0.21624275 0.03578776 -0.033444487 -0.05830854 0.19569188
0.17498049 -0.08468703 -0.04608234 -0.09966817 0.09291695 0.059497416 0.068686664 0.0038322574
-0.072812706 -0.021492613 -0.042701513 0.046900455 -0.027860774 -0.014070585 -0.02671132 0.04807109
-0.021997152 -0.049984787 -0.40821528 -0.28108904 -0.18804735 -0.054011848 0.04226382 -0.13346873
-0.07497697 -0.034993466 -0.22048289 0.06279721 0.12241343 -0.086970694 -0.06796413 -0.20878638
-0.17813848 -0.13553579 -0.11281106 0.19388741 -0.09079729 -0.1004267 0.025819547 0.032949034
0.016881138 -0.29340518 0.085071325 0.09729608 -0.078133285 0.09399424 -0.04061703 0.13130209
-0.42810535 -0.109962754 0.09022069 -0.3190819 0.017380042 -0.031239338 -0.10798175 0.024462901
-0.2043211 0.034759473 0.017533576 -0.27124223 -0.07389343 -0.08208325 -0.23595239 -0.19529517
-0.09406896 -0.035165273 0.021854563 0.011796319 0.071399294 -0.113942325 -0.072151825 0.009947464
-0.025075063 0.0284447 0.18344906 -0.12416199 -0.10815411 -0.17679842 -0.089497216 0.029387077
-0.17469412 -0.29611623 -0.028964045 -0.14307325 -0.009729621 0.10017478 0.08656067 0.12637712

convblock4.1.weight f4 [32]
00000000: bbf8 293f a7b2 303f cd88 103f a49e 5a3f
00000010: 90a8 d93e 0c3f 073f c3e7 0e3f 5144 3f3f
00000020: e4f1 213f 4d23 cb3e 7294 183f cee4 0c3f
00000030: d39c 063f 11a5 003f 3930 003f a610 de3e
00000040: 8d9b a33e 283b 093f 4068 153f d951 f63e
00000050: 6edf e13e 073d 1b3f 1a4f b63e 5aa3 053f
00000060: 49d7 fe3e 1851 243f 6792 0b3f 3c2c ff3e
00000070: 3f4e e83e 07e6 3f3f 11e3 1c3f 2985 0f3f
0.6639516 0.690226 0.5645874 0.85398316 0.42511415 0.52830577 0.5582239 0.7471362
0.6325972 0.3967537 0.5960151 0.5503663 0.52583045 0.5025187 0.5007358 0.43372077
0.31954613 0.5360589 0.583622 0.4810932 0.44115776 0.60639995 0.35607225 0.5220238
0.49773625 0.6418624 0.5452027 0.49838436 0.45372197 0.7496037 0.61283976 0.5606256

convblock4.1.bias f4 [32]
00000000: c407 00bf 7903 1ebf 6de6 06bf c389 2abf
00000010: 7a49 a5be 77ef d9be a865 4abf c024 55bf
00000020: 7fd6 fcbe 9dfe d63c b9fd 06bf 5389 07bf
00000030: cfa3 ccbe 80fc f1be 9c6e b8be a9ed b7be
00000040: 4470 31be 1f69 1bbf acee e8be 640a 20bf
00000050: f90e 80be 9107 10bf 75de cfbe c973 32bf
00000060: bfc6 02bf d6a3 15bf 66f3 e7be a29f b5be
00000070: ebab f6bd 5e67 fdbe 05ce c4be 9aed 06bf
-0.5001185 -0.6172405 -0.5269535 -0.6661646 -0.3228262 -0.4256551 -0.79061365 -0.832592
-0.49382398 0.026244456 -0.527309 -0.52943915 -0.39968726 -0.47262955 -0.36021888 -0.35923508
-0.17327982 -0.6070728 -0.45494592 -0.62515855 -0.25011423 -0.56261545 -0.4059941 -0.69707924
-0.5108451 -0.5845312 -0.45302886 -0.35473353 -0.120445095 -0.49492925 -0.3843843 -0.527063

convblock4.1.running_mean f4 [32]
00000000: da94 8cbe 35a0 d6bd f9ac b6bd f0ca 54bf
00000010: ca71 523f a0bc 303f 77aa a13f f6a0 8ebb
00000020: 5b02 50bf b6c9 95bf 4f4b 4d3f 3e15 253f
00000030: 0fbd 13be ee86 dabe aa6d a43e f8a9 2c3f
00000040: 94ba 4d3f 3aab 5e3d d9cb b8be 4e02 d43e
00000050: 2c73 f13e 583e cfbd debd 883f 8d47 1e3f
00000060: 6b18 873f 7faa ebbc d7b3 7abe d81f 133f
00000070: b963 c6be c8a5 0dbf bbc9 73be f9d1 863e
-0.27457315 -0.10479776 -0.08919711 -0.8312216 0.8220488 0.6903782 1.2630147 -0.004352684
-0.81253594 -1.1702182 0.80193037 0.6448554 -0.14427589 -0.42681068 0.32114917 0.6744685
0.8036282 0.054362513 -0.36093023 0.41408008 0.47158182 -0.10119313 1.0682943 0.6182793
1.0554327 -0.028767822 -0.24482666 0.57470465 -0.38747957 -0.5533109 -0.23807423 0.2633207

convblock4.1.running_var f4 [32]
00000000: ed1b b33f 6b50 823f aafb 7c3f ed3c 0a40
00000010: 23cd 863f 62bc a13f 4fe4 803f f5bb f13f
00000020: 1383 ce3f f394 693f 6627 9f3f ff40 b43f
00000030: 9621 4d3f b864 463f 581b 703f 825a 483f
00000040: c24d 0c3f ab14 413f 2ac4 823f b8f3 5c3f
00000050: 8d2e 8d3f 5a9c 943f 62b4 5c3f bc6a 413f
00000060: df01 683f 24b1 ba3f cfde a53f f510 9a3f
00000070: e669 833f 587a 0240 0421 c23f ae13 8f3f
1.3992897 1.0180792 0.9882151 2.1599686 1.0531353 1.2635615 1.0069674 1.8885485
1.6133751 0.91242903 1.2433898 1.4082335 0.80129373 0.77497435 0.93791723 0.78263104
0.5480615 0.7542216 1.0216115 0.86309385 1.1029831 1.1610215 0.8621274 0.7555349
0.90627855 1.4585309 1.2958621 1.2036425 1.0266693 2.0387173 1.5166326 1.1177881
